Best Acc: 99.08%
s = 30
m = 0.35
DataParallel(
  (module): sphere20(
    (conv1_1): Conv2d(3, 64, kernel_size=(3, 3), stride=(2, 2), padding=(1, 1))
    (relu1_1): PReLU(num_parameters=64)
    (conv1_2): Conv2d(64, 64, kernel_size=(3, 3), stride=(1, 1), padding=(1, 1), bias=False)
    (relu1_2): PReLU(num_parameters=64)
    (conv1_3): Conv2d(64, 64, kernel_size=(3, 3), stride=(1, 1), padding=(1, 1), bias=False)
    (relu1_3): PReLU(num_parameters=64)
    (conv2_1): Conv2d(64, 128, kernel_size=(3, 3), stride=(2, 2), padding=(1, 1))
    (relu2_1): PReLU(num_parameters=128)
    (conv2_2): Conv2d(128, 128, kernel_size=(3, 3), stride=(1, 1), padding=(1, 1), bias=False)
    (relu2_2): PReLU(num_parameters=128)
    (conv2_3): Conv2d(128, 128, kernel_size=(3, 3), stride=(1, 1), padding=(1, 1), bias=False)
    (relu2_3): PReLU(num_parameters=128)
    (conv2_4): Conv2d(128, 128, kernel_size=(3, 3), stride=(1, 1), padding=(1, 1), bias=False)
    (relu2_4): PReLU(num_parameters=128)
    (conv2_5): Conv2d(128, 128, kernel_size=(3, 3), stride=(1, 1), padding=(1, 1), bias=False)
    (relu2_5): PReLU(num_parameters=128)
    (conv3_1): Conv2d(128, 256, kernel_size=(3, 3), stride=(2, 2), padding=(1, 1))
    (relu3_1): PReLU(num_parameters=256)
    (conv3_2): Conv2d(256, 256, kernel_size=(3, 3), stride=(1, 1), padding=(1, 1), bias=False)
    (relu3_2): PReLU(num_parameters=256)
    (conv3_3): Conv2d(256, 256, kernel_size=(3, 3), stride=(1, 1), padding=(1, 1), bias=False)
    (relu3_3): PReLU(num_parameters=256)
    (conv3_4): Conv2d(256, 256, kernel_size=(3, 3), stride=(1, 1), padding=(1, 1), bias=False)
    (relu3_4): PReLU(num_parameters=256)
    (conv3_5): Conv2d(256, 256, kernel_size=(3, 3), stride=(1, 1), padding=(1, 1), bias=False)
    (relu3_5): PReLU(num_parameters=256)
    (conv3_6): Conv2d(256, 256, kernel_size=(3, 3), stride=(1, 1), padding=(1, 1), bias=False)
    (relu3_6): PReLU(num_parameters=256)
    (conv3_7): Conv2d(256, 256, kernel_size=(3, 3), stride=(1, 1), padding=(1, 1), bias=False)
    (relu3_7): PReLU(num_parameters=256)
    (conv3_8): Conv2d(256, 256, kernel_size=(3, 3), stride=(1, 1), padding=(1, 1), bias=False)
    (relu3_8): PReLU(num_parameters=256)
    (conv3_9): Conv2d(256, 256, kernel_size=(3, 3), stride=(1, 1), padding=(1, 1), bias=False)
    (relu3_9): PReLU(num_parameters=256)
    (conv4_1): Conv2d(256, 512, kernel_size=(3, 3), stride=(2, 2), padding=(1, 1))
    (relu4_1): PReLU(num_parameters=512)
    (conv4_2): Conv2d(512, 512, kernel_size=(3, 3), stride=(1, 1), padding=(1, 1), bias=False)
    (relu4_2): PReLU(num_parameters=512)
    (conv4_3): Conv2d(512, 512, kernel_size=(3, 3), stride=(1, 1), padding=(1, 1), bias=False)
    (relu4_3): PReLU(num_parameters=512)
    (fc5): Linear(in_features=21504, out_features=512, bias=True)
  )
)
length of train Dataset: 490606
Number of Classses: 10572
2018-05-22 21:45:22 Epoch 1 start training
2018-05-22 21:46:07 Train Epoch: 1 [51200/490606 (10%)]100, Loss: 22.600954, Elapsed time: 45.0899s(100 iters) Margin: 0.3500, Scale: 30.00
2018-05-22 21:46:40 Train Epoch: 1 [102400/490606 (21%)]200, Loss: 21.635449, Elapsed time: 33.0874s(100 iters) Margin: 0.3500, Scale: 30.00
…
